…
  1.783246          0.05681875            0"
  },
  {
    "objectID": "index.html#model-development-1",
    "href": "index.html#model-development-1",
    "title": "Regularization of Bayesian NN by Dropout Technique",
    "section": "2. Model Development",
    "text": "2. Model Development\n\n\nModel: \"sequential\"\n________________________________________________________________________________\n Layer (type)                       Output Shape                    Param #     \n================================================================================\n dense_4 (Dense)                    (None, 128)                     1280        \n dropout_3 (Dropout)                (None, 128)                     0           \n dense_3 (Dense)                    (None, 64)                      8256        \n dropout_2 (Dropout)                (None, 64)                      0           \n dense_2 (Dense)                    (None, 32)                      2080        \n dropout_1 (Dropout)                (None, 32)                      0           \n dense_1 (Dense)                    (None, 16)                      528         \n dropout (Dropout)                  (None, 16)                      0           \n dense (Dense)                      (None, 3)                       51          \n================================================================================\nTotal params: 12195 (47.64 KB)\nTrainable params: 12195 (47.64 KB)\nNon-trainable params: 0 (0.00 Byte)\n________________________________________________________________________________"
  },
  {
    "objectID": "index.html#model-training-1",
    "href": "index.html#model-training-1",
    "title": "Regularization of Bayesian NN by Dropout Technique",
…
