…
    "objectID": "presentation.html#neural-network-with-mc-dropout",
    "href": "presentation.html#neural-network-with-mc-dropout",
    "title": "Regularization of Bayesian Neural Networks with Dropout Nodes",
    "section": "Neural Network with MC Dropout",
    "text": "Neural Network with MC Dropout\n\n\nModel: \"sequential\"\n________________________________________________________________________________\n Layer (type)                       Output Shape                    Param #     \n================================================================================\n dense_4 (Dense)                    (None, 128)                     1536        \n dropout_3 (Dropout)                (None, 128)                     0           \n dense_3 (Dense)                    (None, 64)                      8256        \n dropout_2 (Dropout)                (None, 64)                      0           \n dense_2 (Dense)                    (None, 32)                      2080        \n dropout_1 (Dropout)                (None, 32)                      0           \n dense_1 (Dense)                    (None, 16)                      528         \n dropout (Dropout)                  (None, 16)                      0           \n dense (Dense)                      (None, 1)                       17          \n================================================================================\nTotal params: 12417 (48.50 KB)\nTrainable params: 12417 (48.50 KB)\nNon-trainable params: 0 (0.00 Byte)\n________________________________________________________________________________"
  },
  {
    "objectID": "presentation.html#model-training",
    "href": "presentation.html#model-training",
    "title": "Regularization of Bayesian Neural Networks with Dropout Nodes",
…
